…
        "tod_embedding_dim": 0,
        "dow_embedding_dim": 0,
        "adaptive_embedding_dim": 12,
        "kernel_size": [
            1
        ],
        "num_heads": 4,
        "num_layers": 6,
        "dropout": 0.1,
        "dropout_a": 0.35
    }
}
====================================================================================================
Layer (type:depth-idx)                             Output Shape              Param #
====================================================================================================
TopoSTGformer                                      [16, 12, 1212, 1]         174,528
├─Linear: 1-1                                      [16, 12, 1212, 24]        48
├─MotifTopoEncoder: 1-2                            [1212, 7]                 --
├─Dropout: 1-3                                     [16, 12, 1212, 12]        --
├─Conv2d: 1-4                                      [16, 36, 1212, 12]        1,332
├─AvgPool2d: 1-5                                   [1212, 1212, 12]          --
├─ModuleList: 1-6                                  --                        --
│    └─SelfAttentionLayer: 2-1                     [16, 12, 1212, 36]        --
│    │    └─GraphPropagate: 3-1                    [16, 12, 1212, 36]        --
│    │    └─ModuleList: 3-4                        --                        (recursive)
│    │    └─ModuleList: 3-5                        --                        (recursive)
│    │    └─ModuleList: 3-4                        --                        (recursive)
│    │    └─ModuleList: 3-5                        --                        (recursive)
│    │    └─Dropout: 3-6                           [16, 12, 1212, 36]        --
│    │    └─LayerNorm: 3-7                         [16, 12, 1212, 36]        72
│    │    └─Mlp: 3-8                               [16, 12, 1212, 36]        5,292
│    │    └─Dropout: 3-9                           [16, 12, 1212, 36]        --
│    │    └─LayerNorm: 3-10                        [16, 12, 1212, 36]        72
├─Linear: 1-7                                      [16, 1212, 36]            15,588
├─ModuleList: 1-8                                  --                        --
│    └─Mlp: 2-2                                    [16, 1212, 36]            --
│    │    └─Linear: 3-11                           [16, 1212, 72]            2,664
│    │    └─ReLU: 3-12                             [16, 1212, 72]            --
│    │    └─Dropout: 3-13                          [16, 1212, 72]            --
│    │    └─Identity: 3-14                         [16, 1212, 72]            --
│    │    └─Linear: 3-15                           [16, 1212, 36]            2,628
│    │    └─Dropout: 3-16                          [16, 1212, 36]            --
│    └─Mlp: 2-3                                    [16, 1212, 36]            --
│    │    └─Linear: 3-17                           [16, 1212, 72]            2,664
│    │    └─ReLU: 3-18                             [16, 1212, 72]            --
│    │    └─Dropout: 3-19                          [16, 1212, 72]            --
│    │    └─Identity: 3-20                         [16, 1212, 72]            --
│    │    └─Linear: 3-21                           [16, 1212, 36]            2,628
│    │    └─Dropout: 3-22                          [16, 1212, 36]            --
│    └─Mlp: 2-4                                    [16, 1212, 36]            --
│    │    └─Linear: 3-23                           [16, 1212, 72]            2,664
│    │    └─ReLU: 3-24                             [16, 1212, 72]            --
│    │    └─Dropout: 3-25                          [16, 1212, 72]            --
│    │    └─Identity: 3-26                         [16, 1212, 72]            --
│    │    └─Linear: 3-27                           [16, 1212, 36]            2,628
│    │    └─Dropout: 3-28                          [16, 1212, 36]            --
│    └─Mlp: 2-5                                    [16, 1212, 36]            --
│    │    └─Linear: 3-29                           [16, 1212, 72]            2,664
│    │    └─ReLU: 3-30                             [16, 1212, 72]            --
│    │    └─Dropout: 3-31                          [16, 1212, 72]            --
│    │    └─Identity: 3-32                         [16, 1212, 72]            --
│    │    └─Linear: 3-33                           [16, 1212, 36]            2,628
│    │    └─Dropout: 3-34                          [16, 1212, 36]            --
│    └─Mlp: 2-6                                    [16, 1212, 36]            --
│    │    └─Linear: 3-35                           [16, 1212, 72]            2,664
│    │    └─ReLU: 3-36                             [16, 1212, 72]            --
│    │    └─Dropout: 3-37                          [16, 1212, 72]            --
│    │    └─Identity: 3-38                         [16, 1212, 72]            --
│    │    └─Linear: 3-39                           [16, 1212, 36]            2,628
│    │    └─Dropout: 3-40                          [16, 1212, 36]            --
│    └─Mlp: 2-7                                    [16, 1212, 36]            --
│    │    └─Linear: 3-41                           [16, 1212, 72]            2,664
│    │    └─ReLU: 3-42                             [16, 1212, 72]            --
│    │    └─Dropout: 3-43                          [16, 1212, 72]            --
│    │    └─Identity: 3-44                         [16, 1212, 72]            --
│    │    └─Linear: 3-45                           [16, 1212, 36]            2,628
│    │    └─Dropout: 3-46                          [16, 1212, 36]            --
├─Linear: 1-9                                      [16, 1212, 12]            444
====================================================================================================
Total params: 246,194
Trainable params: 246,194
Non-trainable params: 0
Total mult-adds (Units.MEGABYTES): 319.29
====================================================================================================
Input size (MB): 0.93
Forward/backward pass size (MB): 1493.03
Params size (MB): 0.29
…
